dqn_snake_model1.onnx (onnx, 141143 bytes, 6 tensors)

q_net.0.weight f4 [64, 400]
0.119217105 0.06927085 0.025655141 -0.038594216 0.0042133965 -0.036821593 -0.1533353 -0.0028012036
0.03203495 -0.07004573 -0.044875532 0.02617684 -0.08007851 0.003000315 0.02224949 0.02144452
0.05920361 0.013123472 0.04783987 0.03287959 0.074363664 0.10032104 0.042329397 0.028212346
0.05063555 0.026600463 -0.0917879 -0.12102096 -0.036766812 -0.018260613 0.007895744 -0.019336335
-0.026574187 0.052424084 0.055926953 0.029044883 0.023948664 0.048545066 0.046123 0.029082788
0.1292079 0.06352531 0.07565134 0.06470934 -0.12053631 -0.107863806 -0.032657735 -0.120116614
-0.025505863 -0.037088916 -0.021649636 -0.031114567 -0.08450723 -0.019934243 0.03269796 -0.002215106
-0.07692867 0.061028466 0.03291164 -0.018962767 0.09014009 0.048352994 0.020999184 -0.014219815
0.030176045 -0.04027184 -0.006996391 -0.0037547972 0.013172916 -0.029311247 -0.0033744168 -0.07915666
-0.11628009 -0.092931546 0.027775284 0.06649911 -0.21503736 0.004123632 -0.03377856 0.04235127
0.07480143 0.007628702 0.0315006 0.05056661 -0.037897598 -0.025704166 -0.014144677 0.031957384
0.014834137 -0.10094453 0.051894568 0.0066130473 0.0527994 0.031527378 -0.059919257 -0.060985375
-0.069457315 0.015959313 0.05987401 -0.0005907854 0.060105175 0.11443682 0.038889386 0.051826615
0.01334949 -0.0005620666 -0.017339619 0.05661677 -0.0636427 -0.016266888 -0.05771824 0.018956397
-0.07442114 -0.01857715 0.052625954 0.031556364 -0.03866026 -0.030195076 -0.04710433 -0.0036374365
-0.008932083 0.027423551 -0.015068842 0.016264165 -0.03542227 0.036213465 0.05537834 -0.015326211
-0.041100178 -0.11441411 0.04972163 0.012525485 0.054082718 0.06964274 -0.03325885 -0.17556313
0.012947965 -0.06083789 -0.14039125 -0.10264602 0.029795296 0.0032835712 0.07335346 -0.18947196
-0.018029748 -0.0065148105 0.028512163 -0.08706307 -0.081667356 0.00055921916 -0.091071464 -0.035657704
-0.027070709 0.044757005 -0.09827159 -0.049278017 0.026587876 -0.12354984 0.02506565 -0.0033522553
0.0317839 0.0111473175 0.029397491 0.013191132 0.036058977 0.021262567 0.03923845 -0.03175127
-0.059122555 -0.006772281 0.015086547 -0.030521723 -0.07772968 -0.17833215 -0.013098518 0.024675852
-0.07210302 -0.11827546 -0.06441143 -0.022225963 0.05953464 -0.043612555 0.015116663 -0.016315063
0.012066217 0.010073153 -0.09139175 0.047384225 -0.080467105 0.02005082 0.09898796 0.032994915
-0.029567286 0.04774778 0.033858586 -0.14735259 -0.082776725 -0.036751956 0.031227164 0.029903475
-0.013944616 0.0072933435 0.027521173 -0.0109765455 -0.02438933 -0.005539944 -0.048336852 -0.002360299
-0.072131425 0.046116438 0.008689067 0.050383322 0.025558539 -0.08669755 -0.16038468 -0.093943946
0.030252233 0.08721382 -0.052880593 0.00027735034 0.07330816 -0.029609155 0.03437315 -0.0033796863
0.0065767057 -0.07623448 -0.08961012 -0.09209362 -0.03363248 0.030367354 0.029930089 0.042258874
-0.034928773 -0.016826963 -0.006159495 0.010766193 -0.10166714 -0.030100966 -0.020909753 0.030176982
0.004979185 -0.021166343 0.005135115 -0.081771754 -0.19658485 -0.034034364 -0.005988331 -0.04489317
-0.07174622 -0.018389855 0.06741808 0.04407796 -0.0044858744 -0.18136536 0.045138698 -0.014144034
00000000: 1928 f43d e0dd 8d3d bb2a d23c f814 1ebd
00000010: 8810 8a3b 3dd2 16bd ee03 1dbe 6694 37bb
00000020: 1437 033d 2374 8fbd 68cf 37bd d070 d63c
00000030: 3400 a4bd efa0 443b 9044 b63c 6bac af3c
00000040: 7c7f 723d d503 573c bdf3 433d c0ac 063d
00000050: fa4b 983d 1e75 cd3d 9761 2d3d 941d e73c
00000060: 3967 4f3d 37e9 d93c 4bfb bbbd d6d9 f7bd
00000070: cc98 16bd 4897 95bc 275d 013c 3c67 9ebc
00000080: 1cb2 d9bc a3ba 563d a913 653d 89ef ed3c
00000090: fd2f c43c 31d7 463d 79eb 3c3d 073f ee3c
000000a0: 134f 043e 8f19 823d 17ef 9a3d 5586 843d
000000b0: bedb f6bd b3e7 dcbd 1ec4 05bd b3ff f5bd
000000c0: acf1 d0bc 8cea 17bd 945a b1bc fae3 febc
000000d0: 2012 adbd 234d a3bc 4cee 053d 502b 11bb
000000e0: c78c 9dbd fcf8 793d 5bce 063d ce57 9bbc
000000f0: 5e9b b83d ca0d 463d 7b06 ac3c 3afa 68bc
00000100: c133 f73c 16f4 24bd fb41 e5bb 0b13 76bb
00000110: 37d3 573c 241e f0bc 5225 5dbb e31c a2bd
00000120: 4124 eebd e552 bebd fe88 e33c af30 883d
00000130: c132 5cbe 881f 873b 635b 0abd 8678 2d3d
00000140: 7e31 993d 31fa f93b c606 013d ef1e 4f3d
00000150: 833a 1bbd 8b91 d2bc 13bf 67bc bfe5 023d
00000160: e10a 733c 01bc cebd 668f 543d 43b2 d83b
00000170: 2f44 583d da22 013d e56d 75bd cdcb 79bd
00000180: a33f 8ebd 1bbd 823c 733e 753d f0de 1aba
00000190: d830 763d da5d ea3d 7a4a 1f3d 2548 543d
000001a0: d2b7 5a3c a757 13ba d10b 8ebc fce6 673d
000001b0: 1b57 82bd 2342 85bc f669 6cbd 724a 9b3c
000001c0: 1c6a 98bd 1b2f 98bc 508e 573d 3f41 013d
000001d0: 395a 1ebd aa5b f7bc 78f0 40bd 0f62 6ebb
000001e0: df57 12bc 5ba7 e03c 4ee3 76bc 6d3c 853c
000001f0: f116 11bd 9254 143d 66d4 623d ca1a 7bbc
00000200: a958 28bd f251 eabd e8a8 4b3d b137 4d3c
00000210: d785 5d3d daa0 8e3d 6f3a 08bd d2c6 33be
00000220: b423 543c 2731 79bd b9c2 0fbe 1438 d2bd
00000230: 4415 f43c 2f31 573b 573a 963d f004 42be
00000240: 1fb3 93bc 317a d5bb 5792 e93c 1f4e b2bd
00000250: 3741 a7bd 9098 123a ad83 babd d00d 12bd
00000260: 64c3 ddbc 1f53 373d 9e42 c9bd bfd7 49bd
00000270: d1ce d93c b307 fdbd 7a56 cd3c 83b1 5bbb
00000280: d62f 023d 3da3 363c 02d3 f03c 9e1f 583c
00000290: 94b2 133d d62e ae3c 7fb8 203d 9f0d 02bd
000002a0: 7e2a 72bd 03ea ddbb 902d 773c b108 fabc
000002b0: bd30 9fbd b49c 36be 2b9b 56bc 0325 ca3c
000002c0: c0aa 93bd 683a f2bd 24ea 83bd 3913 b6bc
000002d0: 98da 733d 14a3 32bd e1ab 773c 2ba7 85bc
000002e0: 62b1 453c de09 253c 992b bbbd f615 423d
000002f0: f0cb a4bd 9e41 a43c 33ba ca3d ad25 073d
00000300: 1837 f2bc 2d93 433d 4daf 0a3d 99e3 16be
00000310: d886 a9bd 3889 16bd 1cd0 ff3c 22f8 f43c
00000320: f577 64bc 00fd ee3b 1574 e13c f8d6 33bc
00000330: 22cc c7bc 6b88 b5bb ddfc 45bd 3faf 1abb
00000340: a4b9 93bd 97e4 3c3d 975c 0e3c be5e 4e3d
00000350: 2460 d13c 7c8e b1bd e23b 24be af65 c0bd
00000360: 88d3 f73c 299d b23d 5299 58bd 5569 9139
00000370: 9722 963d e68e f2bc dcca 0c3d ba7d 5dbb
00000380: 6881 d73b d320 9cbd 8385 b7bd 949b bcbd
00000390: 36c2 09bd f5c4 f83c f22f f53c a417 2d3d
000003a0: 7911 0fbd b3d8 89bc 97d5 c9bb b064 303c
000003b0: dd36 d0bd 4d96 f6bc ee4a abbc b835 f73c
000003c0: 6e28 a33b 0a65 adbc 7744 a83b f377 a7bd
000003d0: 8a4d 49be 9e67 0bbd c339 c4bb e7e1 37bd
000003e0: afef 92bd 52a6 96bc 7e12 8a3d 178b 343d
000003f0: 3efe 92bb d7b7 39be 5be3 383d 61bc 67bc

q_net.0.bias f4 [64]
0.015586375 -0.017964192 0.03787268 -0.005905144 -0.0057829223 -0.0028985445 -0.007648452 -0.02055608
0.048276823 -0.022062777 -0.020296669 -0.014553434 0.01922843 -0.007685255 0.012862838 0.026798856
0.024587395 0.057135515 -0.009853995 0.03991174 0.03585228 0.027297841 -0.02216657 0.05808065
0.01744057 0.013444349 0.017444022 0.049602658 0.06522084 0.020483935 -0.0320511 0.050115157
0.04848226 -0.030870188 -0.011922694 0.050530728 -0.011984817 0.029243924 0.0429473 0.035753254
-0.031317256 0.034653615 -0.047510326 0.059317768 -0.08112247 0.049138617 0.06580882 -0.039705116
-0.0056562964 -0.019134182 0.0049145855 0.013051268 0.023280643 -0.024390439 -0.03415991 0.03993334
0.02784994 0.03523755 -0.0070062876 0.02867393 -0.006521581 -0.04326178 -0.010534147 0.00085918454
00000000: ff5d 7f3c a429 93bc 6220 1b3d f07f c1bb
00000010: ab7e bdbb 82f5 3dbb de9f fabb 3965 a8bc
00000020: ebbd 453d ffbc b4bc 3345 a6bc 8771 6ebc
00000030: f184 9d3c 97d4 fbbb a7be 523c 4689 db3c
00000040: 816b c93c ee06 6a3d a772 21bc 7e7a 233d
00000050: d7d9 123d b99f df3c ab96 b5bc fae5 6d3d
00000060: 87df 8e3c b045 5c3c c4e6 8e3c 282c 4b3d
00000070: 8192 853d edcd a73c 0448 03bd 8d45 4d3d
00000080: 5695 463d 7ae3 fcbc 6757 43bc 4ff9 4e3d
00000090: f75b 44bc f490 ef3c 82e9 2f3d 0172 123d
000000a0: 8646 00bd f3f0 0d3d 309a 42bd 30f7 723d
000000b0: 8a23 a6bd 9345 493d c6c6 863d d5a1 22bd
000000c0: 7458 b9bb 4abf 9cbc 880a a13b fcd4 553c
000000d0: 0cb7 be3c 75ce c7bc 43eb 0bbd 2491 233d
000000e0: 8f25 e43c 4055 103d 0095 e5bb 97e5 ea3c
000000f0: fdb2 d5bb 4433 31bd 6a97 2cbc e63a 613a

q_net.2.weight f4 [64, 64]
0.045474492 -0.08294244 -0.099075705 -0.070656076 -0.1552398 0.2656496 -0.031159854 0.007165817
0.17676163 0.004211105 -0.058869574 -0.028421711 -0.07223737 0.017523909 -0.09227315 0.15952821
-0.09308784 0.21093595 0.047129236 0.09761816 0.04453798 0.089940965 0.09862289 0.14592859
-0.0057533346 0.014320366 0.023129843 -0.06640952 0.061226908 0.22824636 -0.13191365 0.04461391
0.0022599427 0.03173754 -0.022055298 -0.045450266 0.088732935 -0.10018835 -0.0034942687 0.073590614
-0.026093883 -0.08757103 -0.11819109 0.23069593 0.073397085 -0.01137122 -0.17411686 0.14146166
0.07724913 0.10790014 0.16496834 -0.0008006763 0.064930856 0.017895821 0.051058274 -0.07986394
-0.16081856 -0.043638892 0.13446437 0.2347364 0.11032572 0.039560486 0.11628814 0.08895068
-0.033149008 0.008745079 -0.07331905 -0.050168462 -0.2223791 0.35546926 -0.0057579223 -0.0047064577
0.1653604 0.20099646 -0.10387223 0.2682966 -0.0958426 0.13541867 0.23795092 0.21182714
0.029179335 0.08490628 0.080554 0.20891109 0.052859697 0.121413276 0.25809464 0.13160664
0.02626357 0.14196229 0.014468031 0.08548509 0.01115709 0.21311706 -0.019080939 -0.013942157
0.2455108 0.031396765 0.13846867 -0.05122596 0.07716844 0.0071667386 0.16580825 0.12616043
0.2051218 -0.08637249 -0.05748376 0.26138207 -0.030626563 -0.17092587 -0.08210303 0.09135883
-0.16073133 -0.13757992 -0.04895935 -0.083450355 -0.031198842 0.039120533 0.05739544 -0.08189664
0.028043026 -0.0015804073 0.22431415 0.027745778 0.12356519 0.18948412 0.041472614 0.054963518
0.056616846 -0.015035715 0.07833761 0.1903381 0.26787314 -0.121016175 -0.069363296 0.15932024
-0.074330285 0.01150783 0.19193912 -0.06649468 0.20243214 -0.10872687 0.01454968 -0.0886518
0.127887 -0.132435 -0.18665992 -0.10004496 0.042459227 0.14149421 -0.15496264 0.0053666984
0.1102246 0.16796762 -0.028302157 0.18698542 0.06849845 0.0476671 0.07757923 0.022972323
0.06476102 0.06469931 -0.01086569 0.010702221 -0.12617172 0.05385997 0.10605134 -0.09455604
0.019861411 0.09448369 0.13873978 -0.16468544 0.08269136 7.6604134e-05 0.18008667 -0.11195718
-0.016295126 0.21371749 -0.13105705 0.06687795 -0.114917494 -0.19669354 0.08627052 0.28375483
0.11434561 0.010223577 -0.0567569 -0.108123004 -0.08000619 0.11848845 -0.1974327 -0.077135496
0.23106 0.123737134 0.07152635 0.0048139594 0.14453232 0.15687959 0.31659308 -0.102592655
0.1738369 0.15605094 0.0913621 -0.012135392 0.19983904 0.019257044 0.24571311 0.29361486
-0.018538723 0.053490076 0.1303138 0.20437407 0.28696617 -0.02229537 0.29872817 -0.058485284
0.20235619 0.04930544 0.32655436 0.021270432 0.2572013 0.2495211 -0.09228677 0.30173168
0.134006 0.2151116 0.10273081 0.11310337 0.23250696 -0.08091225 0.25133088 0.254665
0.17429727 0.17566645 -0.20701991 0.07390283 0.026285224 0.0626025 -0.07946548 0.18428037
0.30610025 0.077634975 0.2939666 0.16766872 0.13373967 0.27047086 -0.08551001 -0.028513735
-0.09049438 0.22000611 0.051268328 0.3381439 0.005013515 -0.16481346 0.19598511 0.24963248
00000000: 7643 3a3d badd a9bd 34e8 cabd 22b4 90bd
00000010: 2ff7 1ebe 3903 883e f342 ffbc 3bcf ea3b
00000020: 0001 353e 4ffd 893b 3921 71bd a6d4 e8bc
00000030: 30f1 93bd 4d8e 8f3c b5f9 bcbd 5d5b 233e
00000040: d6a4 bebd 98ff 573e 960a 413d 08ec c73d
00000050: 756d 363d f832 b83d ccfa c93d 4e6e 153e
00000060: 7886 bcbb f89f 6a3c cc7a bd3c b701 88bd
00000070: 11c9 7a3d 6ab9 693e 5f14 07be 13bd 363d
00000080: 8c1b 143b 39ff 013d 50ad b4bc 0f2a 3abd
00000090: 9db9 b53d 8d2f cdbd 1a00 65bb adb6 963d
000000a0: d7c2 d5bc 7158 b3bd 2c0e f2bd 8e3b 6c3e
000000b0: 3651 963d 5b4e 3abc b14b 32be 53db 103e
000000c0: cb34 9e3d c0fa dc3d 76ed 283e 7ae4 51ba
000000d0: 78fa 843d 429a 923c 7b22 513d b58f a3bd
000000e0: 9fad 24be b2be 32bd 07b1 093e bd5e 703e
000000f0: 73f2 e13d 2d0a 223d 7a28 ee3d c62b b63d
00000100: 41c7 07bd 8547 0f3c 4c28 96bd 727d 4dbd
00000110: 59b7 63be 1100 b63e f4ac bcbb a138 9abb
00000120: 3d54 293e 04d2 4d3e f7ba d4bd 2c5e 893e
00000130: 2049 c4bd 31ab 0a3e 68a9 733e 37e9 583e
00000140: 8009 ef3c 58e3 ad3d 7ff9 a43d caec 553e
00000150: 6983 583d 86a7 f83d fb24 843e e4c3 063e
00000160: b326 d73c 905e 113e 520b 6d3c cf12 af3d
00000170: 3acc 363c 5c3b 5a3e a14f 9cbc a56d 64bc
00000180: 2f67 7b3e e599 003d bbca 0d3e 50d2 51bd
00000190: 7d0a 9e3d f6d6 ea3b a3c9 293e 3330 013e
000001a0: 730b 523e 0fe4 b0bd 1774 6bbd dfd3 853e
000001b0: 8fe4 fabc 3107 2fbe a225 a8bd 571a bb3d
000001c0: c196 24be c0e1 0cbe 9989 48bd 05e8 aabd
000001d0: b794 ffbc da3c 203d 7b17 6b3d 6db9 a7bd
000001e0: 7dba e53c ab25 cfba 9cb2 653e 1d4b e33c
000001f0: bf0f fd3d 2008 423e 30df 293d 6d21 613d
00000200: 11e7 673d 5c58 76bc 786f a03d fee7 423e
00000210: ab26 893e 54d7 f7bd 580e 8ebd d824 233e
00000220: 7a3a 98bd 568b 3c3c b08b 443e 5d2e 88bd
00000230: 5f4a 4f3e 31ac debd c861 6e3c 138f b5bd
00000240: cff4 023e 0a9d 07be c723 3fbe 5fe4 ccbd
00000250: bae9 2d3d dce3 103e 87ae 1ebe 21db af3b
00000260: 6fbd e13d b4ff 2b3e edd9 e7bc 1b79 3f3e
00000270: ea48 8c3d 943e 433d dce1 9e3d 7430 bc3c
00000280: 6da1 843d 1281 843d 0206 32bc 5e58 2f3c
00000290: 2933 01be 469c 5c3d 7231 d93d 99a6 c1bd
000002a0: 66b4 a23c aa80 c13d cd11 0e3e 4da3 28be
000002b0: 165a a93d 88a6 a038 a468 383e ce49 e5bd
000002c0: 5b7d 85bc c2d8 5a3e d233 06be 4ff7 883d
000002d0: dd59 ebbd 086a 49be 99ae b03d 5048 913e
000002e0: 082e ea3d ca80 273c ec79 68bd 986f ddbd
000002f0: 49da a3bd 13aa f23d cc2b 4abe 37f9 9dbd
00000300: fe9a 6c3e e569 fd3d 687c 923d 6bbe 9d3b
00000310: 4800 143e 0ba5 203e 7d18 a23e 191c d2bd
00000320: 4d02 323e d1cb 1f3e 0d1c bb3d 86d3 46bc
00000330: 9ba2 4c3e f3c0 9d3c 389c 7b3e b054 963e
00000340: 85de 97bc 6918 5b3d fb70 053e 7047 513e
00000350: 3bed 923e c8a4 b6bc e6f2 983e 448e 6fbd
00000360: 7636 4f3e 80f4 493d 2232 a73e 543f ae3c
00000370: e4af 833e 7682 7f3e d900 bdbd 937c 9a3e
00000380: de38 093e 3746 5c3e 8864 d23d bda2 e73d
00000390: 4e16 6e3e 52b5 a5bd 71ae 803e 7363 823e
000003a0: fc7a 323e e8e1 333e 07fd 53be 5e5a 973d
000003b0: 1c54 d73c bd35 803d ccbe a2bd feb3 3c3e
000003c0: 2cb9 9c3e 16ff 9e3d ca82 963e 59b1 2b3e
000003d0: 0df3 083e 287b 8a3e df1f afbd a395 e9bc
000003e0: 1e55 b9bd 4849 613e bdfe 513d 3221 ad3e
000003f0: 6948 a43b dcc4 28be 52b0 483e a89f 7f3e

q_net.2.bias f4 [64]
-0.050034083 0.11642455 0.1504634 0.1969813 -0.10327443 -0.05576676 -0.10947863 0.08085512
-0.09561352 0.10274907 -0.04274097 0.12131179 0.040247723 0.16689639 0.17787814 -0.036066853
0.14167425 0.19491382 -0.12657806 -0.097776815 0.09526969 0.13938862 0.22164676 -0.005867661
0.12233308 0.0007286335 0.11798481 -0.0077906717 0.22904761 -0.071253106 0.21863647 -0.11580683
-0.102199465 0.13503543 0.06230328 0.049934592 -0.095522 0.085692696 -0.027402256 0.24108705
0.14139494 -0.14506087 0.10171933 -0.07311462 0.10194824 -0.05042921 0.11276334 -0.042160116
0.06909432 0.14858297 0.09281616 -0.036823552 -0.03150666 0.08608121 0.051738884 0.08381778
-0.035063528 -0.11798264 0.07787276 0.04299503 0.07606949 -0.14047322 0.13708346 0.12306918
00000000: 8af0 4cbd ff6f ee3d 1413 1a3e 77b5 493e
00000010: 8b81 d3bd b06b 64bd 5536 e0bd 5f97 a53d
00000020: 05d1 c3bd 1b6e d23d 2811 2fbd 5172 f83d
00000030: ccda 243d e3e6 2a3e b025 363e d6ba 13bd
00000040: 0e13 113e 7d97 473e ae9d 01be 363f c8bd
00000050: c11c c33d e4bb 0e3e 5ef7 623e 8245 c0bb
00000060: c489 fa3d c401 3f3a 05a2 f13d e448 ffbb
00000070: 758b 6a3e 26ed 91bd 3de2 5f3e 222c edbd
00000080: f44d d1bd ba46 0a3e b931 7f3d 3788 4c3d
00000090: 0aa1 c3bd a77f af3d b27a e0bc 86df 763e
000000a0: d6c9 103e d68a 14be 3952 d03d 1ebd 95bd
000000b0: 3dca d03d dc8e 4ebd 77f0 e63d 16b0 2cbd
000000c0: 5381 8d3d 2226 183e 6616 be3d 4bd4 16bd
000000d0: 210d 01bd 584b b03d 27ec 533d a8a8 ab3d
000000e0: c69e 0fbd e2a0 f1bd c17b 9f3d 8e1b 303d
000000f0: 52ca 9b3d 36d8 0fbe 9b5f 0c3e b20b fc3d

q_net.4.weight f4 [4, 64]
0.06463012 -0.17023048 -0.07773996 -0.08124725 -0.2716065 -0.30229163 -0.0805405 -0.33925518
0.1643352 0.006562156 -0.3055963 -0.17589839 -0.08702828 -0.29636765 -0.10296592 0.24180089
-0.26890266 0.040692184 -0.34652486 0.23140101 -0.08804084 0.11980469 -0.28871837 -0.32054612
-0.10962057 0.13725929 0.17121594 0.017342499 -0.22964478 0.13538161 -0.1726035 -0.15087514
-0.030727465 -0.16849168 -0.32336876 0.15135452 0.17207716 -0.15949737 0.17237179 -0.17279023
-0.16888116 -0.38485 -0.19498852 0.033679727 -0.16482022 0.071119666 -0.28726023 0.0011779165
-0.19936216 -0.03948793 0.036550198 -0.14971043 -0.19971828 -0.24695931 0.055206645 -0.1666522
0.24224399 -0.19015571 -0.27269164 -0.3034717 0.09236153 -0.24878593 0.02793357 0.0037555185
0.04828593 0.17160815 -0.114200614 -0.19997498 0.08766851 0.016408904 0.071084686 -0.18559724
-0.009990877 0.16136453 0.1262055 0.10479921 -0.20104772 -0.07107162 -0.26052195 -0.0378882
0.08552832 -0.27379656 -0.31408173 -0.0021540949 -0.22955872 0.15807566 -0.02463516 0.030738553
-0.19870628 0.22565965 0.03141178 -0.09975703 -0.22931217 -0.031724706 -0.14692707 0.09268644
-0.29968205 -0.18242706 -0.24108456 -0.06736452 -0.23433393 -0.34687153 -0.17937697 -0.1414566
0.118279845 -0.2660393 -0.12151211 0.06268642 0.0530142 0.29892808 0.06191513 0.19935127
0.032880165 0.050964713 -0.21960904 -0.16009028 0.12114023 -0.33109176 -0.11406946 -0.18984137
0.038178705 0.17425203 0.18603426 -0.20965943 -0.2734216 -0.39462084 0.031409852 -0.23470323
0.04495403 -0.09442622 0.18725656 -0.14525977 0.026981968 0.0060281456 -0.26770025 -0.16350313
-0.10614697 -0.16564845 0.12286303 0.21873327 -0.17398034 -0.13202454 -0.0542302 0.22617695
-0.19164032 -0.19888844 -0.05672793 -0.33965948 -0.20190361 -0.20815052 -0.20639282 0.12393245
-0.2607907 0.23233975 -0.17533647 0.037505325 -0.04423311 0.22736011 -0.20080926 -0.30809277
-0.10726638 0.11594991 -0.13985807 -0.2695702 -0.09101855 -0.025287116 -0.20670073 -0.24536933
-0.31302097 0.15416192 -0.100759014 0.083387546 0.16520686 0.117519386 0.09691939 -0.3742101
0.21399552 -0.28014514 -0.22066398 0.10236193 0.29716098 0.096703134 -0.12941046 -0.24068093
0.11603738 0.103967145 0.068083875 -0.068469234 -0.046422172 -0.08966873 0.19119957 -0.20742463
-0.3719437 -0.2277795 0.30039263 -0.1830864 -0.35676515 0.017614061 -0.2719762 0.07858941
0.20237274 0.067080155 -0.047363274 0.25541368 -0.20809227 0.07603711 -0.16041243 0.12608872
-0.20441537 -0.24604422 0.012504772 -0.19369566 -0.14785744 -0.34651107 -0.113259606 -0.084574535
-0.19844715 -0.02570642 -0.2541376 0.2868224 -0.15590605 -0.24568464 -0.30845758 -0.102990925
0.055928715 0.2263485 0.0023319223 0.09307294 -0.2788639 -0.083830796 -0.02501604 -0.08170977
0.052826304 -0.027515747 -0.22538815 -0.038344532 -0.04635473 -0.25050378 -0.14292112 0.04980885
-0.13466285 -0.21092758 -0.04384285 0.15497279 0.044300895 0.1276309 -0.460128 -0.04655136
0.0013027088 -0.36403266 -0.09807412 -0.07725411 -0.1831511 0.116580464 -0.26553932 -0.29669675
00000000: cc5c 843d e650 2ebe 2136 9fbd f564 a6bd
00000010: 0210 8bbe f8c5 9abe 6bf2 a4bd dbb2 adbe
00000020: 7d47 283e 5b07 d73b 1e77 9cbe b51e 34be
00000030: e23b b2bd 80bd 97be ccdf d2bd a79a 773e
00000040: 9cad 89be d9ac 263d b56b b1be 63f4 6c3e
00000050: c24e b4bd 295c f53d e5d2 93be 9f1e a4be
00000060: c080 e0bd b38d 0c3e 3b53 2f3e db11 8e3c
00000070: 0028 6bbe 7aa1 0a3e f9be 30be 037f 1abe
00000080: 2ab8 fbbc 1589 2cbe 9790 a5be aefc 1a3e
00000090: ff34 303e 4753 23be 3b82 303e ecef 30be
000000a0: 2fef 2cbe 0f0b c5be 12ab 47be c1f3 093d
000000b0: a2c6 28be 30a7 913d c613 93be 5264 9a3a
000000c0: 9825 4cbe 18be 21bd a9b5 153d b14d 19be
000000d0: f382 4cbe e7e2 7cbe 5d20 623d e0a6 2abe
000000e0: cf0e 783e 2eb8 42be 3d9e 8bbe a560 9bbe
000000f0: 0b28 bd3d bdc1 7ebe f1d4 e43c 251f 763b
00000100: 78c7 453d 0cba 2f3e 03e2 e9bd 3ec6 4cbe
00000110: 8c8b b33d f76b 863c d994 913d 340d 3ebe
00000120: c6b0 23bc be3c 253e 043c 013e f8a0 d63d
00000130: 74df 4dbe ff8d 91bd 2263 85be a830 1bbd
00000140: 7929 af3d 102f 8cbe 52cf a0be b72b 0dbb
00000150: 7111 6bbe 96de 213e adcf c9bc 6bcf fb3c
00000160: a979 4bbe 5313 673e a3a9 003d 6a4d ccbd
00000170: cfd0 6abe c4f1 01bd 0d74 16be 63d2 bd3d
00000180: ed6f 99be 29ce 3abe dfde 76be 69f6 89bd
00000190: 3cf5 6fbe 2599 b1be 99ae 37be 00da 10be
000001a0: b43c f23d 4e36 88be 57db f8bd bd61 803d
000001b0: 6b25 593d 1a0d 993e b89a 7d3d bd22 4c3e
000001c0: 5aad 063d 60c0 503d 31e1 60be b5ee 23be
000001d0: 5e18 f83d dc84 a9be 409d e9bd c765 42be
000001e0: 4661 1c3d 206f 323e c47f 3e3e f6b0 56be
000001f0: eafd 8bbe be0b cabe 9ea7 003d 0b56 70be
00000200: b821 383d 8962 c1bd 2fc0 3f3e fabe 14be
00000210: 4a09 dd3c c087 c53b 0210 89be 5d6d 27be
00000220: 9563 d9bd bf9f 29be 9d9f fb3d 9dfb 5f3e
00000230: e727 32be 7131 07be 7c20 5ebd ee9a 673e
00000240: 5c3d 44be 69a9 4bbe 8c5b 68bd d9e7 adbe
00000250: d2bf 4ebe 6925 55be a458 53be 4cd0 fd3d
00000260: 5c86 85be 79ea 6d3e 678b 33be 2f9f 193d
00000270: c72d 35bd 17d1 683e f1a0 4dbe 56be 9dbe
00000280: 7aae dbbd 2577 ed3d f436 0fbe 1b05 8abe
00000290: ef67 babd ed26 cfbc 5ba9 53be 1942 7bbe
000002a0: 4944 a0be 9fdc 1d3e be5a cebd 17c7 aa3d
000002b0: fd2b 293e 01ae f03d ac7d c63d 7798 bfbe
000002c0: a421 5b3e 2f6f 8fbe bdf5 61be 22a3 d13d
000002d0: 7c25 983e 4b0c c63d 2d84 04be 1075 76be
000002e0: 02a5 ed3d baec d43d 8f6f 8b3d 9939 8cbd
000002f0: 2d25 3ebd 3da4 b7bd d2c9 433e 1f67 54be
00000300: 686f bebe 073f 69be 10cd 993e 007b 3bbe
00000310: eca9 b6be 5d4b 903c 7740 8bbe 7cf3 a03d
00000320: cd3a 4f3e 5261 893d feff 41bd 95c5 823e
00000330: 2416 55be 58b9 9b3d 2843 24be 671d 013e
00000340: 4352 51be 04f3 7bbe d1e0 4c3c 2858 46be
00000350: f167 17be e669 b1be a7f4 e7bd 6a35 adbd
00000360: bb35 4bbe 4596 d2bc 531e 82be 63da 923e
00000370: d6a5 1fbe c194 7bbe 27ee 9dbe e8ec d2bd
00000380: 8215 653d e7c7 673e 2ad3 183b 079d be3d
00000390: 40c7 8ebe 7baf abbd 70ee ccbc 7457 a7bd
000003a0: 6560 583d b468 e1bc 27cc 66be 280f 1dbd
000003b0: 75de 3dbd 0842 80be ea59 12be 5d04 4c3d
000003c0: 0fe5 09be 66fd 57be 8f94 33bd 30b1 1e3e
000003d0: db74 353d adb1 023e e695 ebbe a4ac 3ebd
000003e0: a7bf aa3a 7d62 babe 16db c8bd 6737 9ebd
000003f0: f68b 3bbe bdc1 ee3d c5f4 87be a3e8 97be

q_net.4.bias f4 [4]
0.008406911 -0.08581035 -0.07850766 -0.15442246
00000000: 24bd 093c 56bd afbd a0c8 a0bd ec20 1ebe
